…
fer=False, task=detect, time=None, tracker=botsort.yaml, translate=0.1, val=True, verbose=True, vid_stride=1, visualize=False, warmup_bias_lr=0.1, warmup_epochs=3.0, warmup_momentum=0.8, weight_decay=0.0001, workers=0, workspace=None\n","\u001b[KDownloading https://ultralytics.com/assets/Arial.ttf to '/root/.config/Ultralytics/Arial.ttf': 100% ━━━━━━━━━━━━ 755.1KB 27.2MB/s 0.0s\n","Overriding model.yaml nc=80 with nc=9\n","\n","                   from  n    params  module                                       arguments                     \n","  0                  -1  1       464  ultralytics.nn.modules.conv.Conv             [3, 16, 3, 2]                 \n","  1                  -1  1      4672  ultralytics.nn.modules.conv.Conv             [16, 32, 3, 2]                \n","  2                  -1  1      7360  ultralytics.nn.modules.block.C2f             [32, 32, 1, True]             \n","  3                  -1  1     18560  ultralytics.nn.modules.conv.Conv             [32, 64, 3, 2]                \n","  4                  -1  2     49664  ultralytics.nn.modules.block.C2f             [64, 64, 2, True]             \n","  5                  -1  1     73984  ultralytics.nn.modules.conv.Conv             [64, 128, 3, 2]               \n","  6                  -1  2    197632  ultralytics.nn.modules.block.C2f             [128, 128, 2, True]           \n","  7                  -1  1    295424  ultralytics.nn.modules.conv.Conv             [128, 256, 3, 2]              \n","  8                  -1  1    460288  ultralytics.nn.modules.block.C2f             [256, 256, 1, True]           \n","  9                  -1  1    164608  ultralytics.nn.modules.block.SPPF            [256, 256, 5]                 \n"," 10                  -1  1         0  torch.nn.modules.upsampling.Upsample         [None, 2, 'nearest']          \n"," 11             [-1, 6]  1         0  ultralytics.nn.modules.conv.Concat           [1]                           \n"," 12                  -1  1    148224  ultralytics.nn.modules.block.C2f             [384, 128, 1]                 \n"," 13                  -1  1         0  torch.nn.modules.upsampling.Upsample         [None, 2, 'nearest']          \n"," 14             [-1, 4]  1         0  ultralytics.nn.modules.conv.Concat           [1]                           \n"," 15                  -1  1     37248  ultralytics.nn.modules.block.C2f             [192, 64, 1]                  \n"," 16                  -1  1     36992  ultralytics.nn.modules.conv.Conv             [64, 64, 3, 2]                \n"," 17            [-1, 12]  1         0  ultralytics.nn.modules.conv.Concat           [1]                           \n"," 18                  -1  1    123648  ultralytics.nn.modules.block.C2f             [192, 128, 1]                 \n"," 19                  -1  1    147712  ultralytics.nn.modules.conv.Conv             [128, 128, 3, 2]              \n"," 20             [-1, 9]  1         0  ultralytics.nn.modules.conv.Concat           [1]                           \n"," 21                  -1  1    493056  ultralytics.nn.modules.block.C2f             [384, 256, 1]                 \n"," 22        [15, 18, 21]  1    753067  ultralytics.nn.modules.head.Detect           [9, 16, None, [64, 128, 256]] \n","Model summary: 130 layers, 3,012,603 parameters, 3,012,587 gradients, 8.2 GFLOPs\n","\n","Transferred 319/355 items from pretrained weights\n","Freezing layer 'model.22.dfl.conv.weight'\n","\u001b[34m\u001b[1mtrain: \u001b[0mFast image access ✅ (ping: 0.9±0.1 ms, read: 0.4±0.1 MB/s, size: 149.1 KB)\n","\u001b[K\u001b[34m\u001b[1mtrain: \u001b[0mScanning /content/d
…
